LSTM_best_model2.tflite (tflite, 452040 bytes, 10 tensors)

arith.constant f4 [5, 64]
000000 31 db 8a 3e 0c 10 89 be bc 1b 9f 3b 69 ed e7 3d
       0.27120355 -0.26770055 0.004855601 0.11324579
000010 ce 34 72 3e 0f 9b a9 be b0 cd a7 3b b4 cd 76 3e
       0.23652956 -0.33126113 0.0051209554 0.24101907
000020 d4 aa 4e 3d 7f 4d 64 be a6 b7 57 3c 0b 17 d4 bd
       0.050455883 -0.22295187 0.013166344 -0.103559576
000030 c4 01 79 be 9e c7 88 be 2e d6 b5 3d 25 34 80 be
       -0.2431708 -0.26714796 0.08878742 -0.25039783
000040 9d 31 db 3c 7b 28 96 be 2d c4 b5 bc 53 f8 38 3d
       0.026757056 -0.2932776 -0.02218827 0.045158695
000050 5b 31 54 be ca e9 f6 bd fa 7c 90 be 95 da d0 bd
       -0.20721953 -0.120563105 -0.2822035 -0.10197941
000060 47 3d a2 3e 8e 36 5b be c4 d3 b1 3d f9 ef 38 3e
       0.31687376 -0.2140753 0.08682969 0.18060292
000070 42 23 e1 3c 3e 23 0e 3e c8 ec 97 3e fa 8b a6 be
       0.027482633 0.13880631 0.29672837 -0.3252867
000080 09 56 7f be a4 78 5a be 66 c3 56 bc 41 c0 43 be
       -0.24935164 -0.21335083 -0.01310811 -0.19116308
000090 53 90 c4 bd 6a 93 a0 3e 1a b0 e0 bb d3 5f 33 3e
       -0.0959784 0.31362468 -0.0068569304 0.17517023
0000a0 82 84 73 be 6c 27 9c 3e da 06 96 bd e4 79 c1 3d
       -0.23781016 0.30498827 -0.073255256 0.09447077
0000b0 ac 08 3f be d6 e4 6a 3c 43 57 f8 bd c3 53 09 be
       -0.18655652 0.014336785 -0.12126019 -0.13410859
0000c0 fb e7 04 3e 40 50 20 be ec 8d 43 be 10 85 e6 bd
       0.12979119 -0.15655613 -0.19097108 -0.112558484
0000d0 af 47 91 3d 6e f2 4a 3d aa 1d b6 be d8 29 96 3d
       0.07093751 0.049547605 -0.35569507 0.073322
0000e0 1a 57 85 3e c0 c9 97 be e9 00 be 3c 5a fb 95 3e
       0.26043016 -0.2964611 0.023193793 0.2929333
0000f0 c2 36 60 be 51 26 9f 3d 89 04 d9 3d af ad ac be
       -0.21895888 0.0777098 0.10596568 -0.3372626
000100 29 2e ab bd 7f 08 95 bd bd a5 5b bd a7 00 52 3e
       -0.08358414 -0.07277011 -0.053624857 0.20508061
000110 0d fe 21 bb b8 dc 70 3d 18 35 9a be 50 bf 1e be
       -0.0024718076 0.058804244 -0.30118632 -0.15502667
000120 60 f0 94 be 2e ff 10 be ec 67 7a be 65 76 fd bc
       -0.29089642 -0.14159843 -0.24453706 -0.030940244
000130 d0 04 a3 be b0 9f c0 3c 81 43 a7 be de 9c 7a 3e
       -0.3183961 0.023513645 -0.3266869 0.24473903
000140 0b 88 37 bd e9 7f ef 3d 00 3b 99 be 37 f2 89 bd
       -0.044807475 0.11694319 -0.29927826 -0.06735652
000150 bc 09 7d bd 62 e8 65 3e 4a 24 a6 3d 1d 9e 48 3e
       -0.06177686 0.22451928 0.0811239 0.19591565
000160 90 6e 00 bc 40 10 79 be 78 9f 2d 3c 95 d8 96 be
       -0.00783886 -0.24322605 0.010597102 -0.29462114
000170 94 f7 06 be f4 03 fc bc 09 5a 40 3e 49 fc cb ba
       -0.13180381 -0.030763604 0.18784346 -0.0015562858
000180 f9 e9 41 bd d2 d4 95 3e 51 fd 6b bc 26 4a 3d 3e
       -0.047342274 0.29263932 -0.014403657 0.18485317
000190 68 84 08 bd 98 f4 52 3e a1 e0 5e 3e ae f7 99 3e
       -0.033329397 0.20601118 0.21765377 0.30071777
0001a0 48 a1 21 be af 89 7c bd 3d 1e 6d be 56 85 9c be
       -0.1578418 -0.061654743 -0.23156066 -0.30570477
0001b0 d3 a7 1f bd c0 8c db 3b f6 30 2a 3e 9d b2 03 3c
       -0.03897841 0.0067001283 0.1662024 0.00803819
0001c0 b9 57 22 3d 39 f8 3b 3e 56 21 53 be 2a 76 a9 3e
       0.03963444 0.18356408 -0.20618185 0.33097965
0001d0 49 ee 1a 3e 35 dd e6 bd 2b 17 40 be 7d 5c 7b 3e
       0.15129961 -0.11272661 -0.18758838 0.24547
0001e0 96 03 4a 3e 58 88 6c 3e c7 56 96 3e 9a 79 87 be
       0.1972793 0.23098886 0.2936308 -0.26459962
0001f0 8e dc 8b be 68 aa e3 bc c1 22 79 bc 34 e1 a4 be
       -0.27316707 -0.027791217 -0.01520604 -0.32203066
000200 d8 03 00 3e 7e 5c 7f 3e fc a4 98 be 08 58 51 3e
       0.12501466 0.24937627 -0.29813373 0.20443738
000210 8d d5 45 be cd 5d 87 bd 4f fb 97 be 8d df 02 bd
       -0.19319744 -0.06609688 -0.2968392 -0.031951476
000220 4f ce 14 3e 00 b1 7a 3c f5 e4 a9 bd 8c a0 a5 be
       0.14531825 0.015300989 -0.08295623 -0.3234905
000230 37 1f 9b 3e 46 53 0e 3e 4a 7c 92 be 12 38 9e bc
       0.30297253 0.13898954 -0.2861045 -0.019313846
000240 00 6a 5b 3e 2d b5 22 3e 89 82 0e be ec fa 50 3e
       0.21427155 0.15889426 -0.13916983 0.20408219
000250 1f 75 10 3e 67 dd 5f bd 0b 7b a7 3d b0 11 f6 3d
       0.14107178 -0.054654505 0.081777655 0.120150924
000260 91 4d 80 be 15 3c 4f be 33 18 66 be e7 e9 17 3d
       -0.25059178 -0.20237763 -0.22470169 0.0370883
000270 b5 17 88 be 94 90 92 3e 75 26 72 3d 1d fc 89 be
       -0.26580587 0.2862593 0.059118707 -0.2695016
000280 d6 cc 7a 3e 4f e9 36 be 11 ae 2f 3e 5b 37 87 be
       0.24492201 -0.17862438 0.17156245 -0.2640942
000290 2a f5 b2 3b 42 3f 7c bc 08 17 a2 bc 37 53 91 be
       0.0054613547 -0.015395941 -0.019786373 -0.283838
0002a0 1a c5 3b be f6 24 5e be b3 1b 0f bd 9a be 94 be
       -0.18336907 -0.21693787 -0.034938525 -0.29051667
0002b0 1a 35 45 3e b0 9d 8b 3d 2f 20 f0 bd 5d 35 92 3e
       0.19258538 0.06817186 -0.117248885 0.28556338
0002c0 01 7d 2d be 79 0f 84 3d 85 25 e1 3b c6 73 43 3e
       -0.16942216 0.06448264 0.0068709278 0.19087133
0002d0 43 00 95 3d 89 78 a4 3e 76 6c 50 3e e4 a6 3c 3e
       0.072754405 0.3212321 0.20353875 0.18423039
0002e0 c7 77 fc bd 6e 92 37 be 7b 6c 43 3e b8 b0 66 be
       -0.12327533 -0.17926952 0.19084351 -0.2252835
0002f0 16 05 54 3e b9 0b e5 bc b8 b9 92 3e d5 e8 cb bc
       0.20705065 -0.027959691 0.28657317 -0.024891296
000300 39 50 66 bd 24 92 18 be 30 23 97 3d 5f 3b 70 be
       -0.05622885 -0.14899498 0.07379758 -0.23460148
000310 6d ad 94 3e 1e cd 82 3d e5 f4 4e 3c b1 25 42 bd
       0.29038563 0.06386779 0.01263163 -0.047399227
000320 5b 7d 7b be f0 18 b5 3c b8 2d a1 be d4 f3 e5 3d
       -0.24559538 0.022106618 -0.31480193 0.11228147
000330 a5 e4 2a 3e 28 39 a2 3e 80 19 4a be b9 56 d7 bc
       0.16688783 0.31684232 -0.1973629 -0.02628647
000340 7d 8b 1c bd fd 1e 2c be 09 45 42 3e 0f 35 0f bd
       -0.038218964 -0.16808696 0.18971647 -0.03496271
000350 ee 4b cb bc 48 99 50 3e f0 5e 79 3d e1 56 0d 3d
       -0.02481648 0.20370972 0.060881555 0.034506682
000360 ff 2b 75 be 3f 94 2b bd 1b 11 70 bd 45 47 f6 bc
       -0.23942564 -0.041889425 -0.058610063 -0.03006328
000370 c8 b9 42 3e 51 92 6e bc a3 a3 d2 bd d9 b6 85 3e
       0.19016182 -0.014561252 -0.102851175 0.26116064
000380 60 3e 71 3c 57 5f 54 bd 0c a8 8c 3d e7 eb 09 3e
       0.014724344 -0.051848736 0.0686799 0.13468896
000390 3e ae 47 be da 1f 6a bd b7 a2 3e bd c5 79 70 be
       -0.19500062 -0.057159282 -0.046541896 -0.23483951
0003a0 30 45 87 be 57 85 49 be 8e ac 1c be cb 56 40 3e
       -0.26419973 -0.19679771 -0.153002 0.18783109
0003b0 8b b7 30 bc 49 89 8d 3e c3 82 b5 be ad 73 07 bd
       -0.010785948 0.27643803 -0.35451326 -0.0330693
0003c0 30 20 28 be ab b6 0d 3b 45 69 19 be a7 b2 94 bc
       -0.16418529 0.0021623771 -0.14981563 -0.018151594
0003d0 78 bb 99 3d fa a3 89 3c 15 e0 1b 3e b1 4c 6b be
       0.0750646 0.016801823 0.152222 -0.22978474
0003e0 13 f3 6e be 46 e2 83 3e d5 c3 9e be b9 d9 59 3e
       -0.23334913 0.2575857 -0.31008783 0.21274461
0003f0 52 05 0c be e8 3a 70 be a1 9d 52 be 4a cb 44 3e
       -0.13673905 -0.23459971 -0.20567943 0.19218174

arith.constant1 f4 [64, 64]
000000 25 ab 36 be 3e 60 8d bd 4b df f9 bd a8 48 6a 3a
       -0.17838724 -0.06903122 -0.12200793 0.0008937218
000010 de 85 e3 bd 17 5a 51 bd 1e 24 05 3e 8c 15 02 be
       -0.111095175 -0.051111307 0.13002059 -0.12703532
000020 19 f2 2b 3e be 93 ad 3d c5 55 35 3e 37 7e 04 bd
       0.16791572 0.08475445 0.177085 -0.03234693
000030 4f e1 92 3d bd 3a 08 3d 9c fe 57 3e 93 c1 28 be
       0.071718805 0.033259142 0.2109322 -0.16480093
000040 5a b3 81 bc 63 c3 1a 3e 30 fc ed 3d a4 0b 1e 3d
       -0.015832592 0.15113597 0.116203666 0.03858532
000050 2c cd cc 3d 66 46 69 be e0 78 34 3d 34 51 5f 3e
       0.10000071 -0.22780761 0.044060588 0.2180832
000060 37 4b d1 3d 1f 26 1f 3e c0 ea 6c 3e c6 3c ec 3d
       0.10219424 0.15541886 0.23136425 0.11535029
000070 cf ab b4 bd ae 72 0a 3e f8 b0 39 be c6 11 d6 ba
       -0.088218324 0.1352031 -0.18133914 -0.0016332201
000080 7f 38 34 3c c5 b5 12 3e 26 ca 02 3d 30 ba 27 3d
       0.010999798 0.14327152 0.031931065 0.040949047
000090 09 a5 9e bd 75 c4 b3 3d 3c c4 85 3d 82 83 bb bd
       -0.07746322 0.087777056 0.06531569 -0.091559425
0000a0 1a e6 21 3d 94 1f d4 bd d9 ac 09 be 25 35 15 3e
       0.039526083 -0.103575855 -0.13444842 0.14571054
0000b0 bf 3f fb bd 0a 4a c5 3c b1 92 53 be 86 77 f5 bd
       -0.12268018 0.024083156 -0.20661427 -0.11985688
0000c0 67 e8 ee bd 9a 9c 13 be 57 4f 91 be 0e 77 25 be
       -0.11665421 -0.14415208 -0.28380844 -0.16158697
0000d0 e7 9f 80 bd fe ef 98 3d 08 1f 68 3d f9 4a 1b 3e
       -0.06280499 0.0746765 0.05667022 0.15165319
0000e0 dd 3b 32 3d c7 f5 6d be 82 72 f6 3c a1 9b 41 3c
       0.04351412 -0.23238288 0.030083898 0.01181689
0000f0 86 d6 b3 3b 9c cb be 3b 85 6b 84 bd a7 f6 73 be
       0.0054882197 0.005822612 -0.0646582 -0.23824559
000100 0f 73 57 3d c3 9f ac bd b7 79 13 3e ee 79 15 be
       0.052599963 -0.0842891 0.144019 -0.14597294
000110 65 6a f9 3d e9 3e d6 bd 1a 90 b5 3d e4 e7 33 be
       0.12178496 -0.10461218 0.08865376 -0.17568928
000120 ca be 8a bd 40 31 e7 bd 9e b9 04 3e 19 68 01 3e
       -0.067746714 -0.112886906 0.12961432 0.12637366
000130 c6 37 01 be 19 45 2c 3e e0 b9 6f be df 69 23 3e
       -0.12618932 0.16823234 -0.2341075 0.15958355
000140 e7 34 23 bd a7 a7 b9 3c 42 6b dc 3c 8b e7 be bd
       -0.039845373 0.02266295 0.026906613 -0.09321507
000150 9b ed 86 be 29 de 76 3d 28 16 8c 3e 8a 78 7c be
       -0.26353154 0.060270462 0.27360654 -0.24655357
000160 7e 80 bc 3d e0 f4 5b bc 6e b5 04 3e f4 2f fe 3d
       0.092041954 -0.013425082 0.12959835 0.1241149
000170 ef d7 75 3e 36 7a 4a be ba 5e aa 3d b4 44 70 3e
       0.24008153 -0.19773182 0.08318849 0.23463708
000180 5c c9 05 3e 25 1c 19 be 71 eb 50 3d f4 ac c0 bd
       0.13065094 -0.14952143 0.051005784 -0.09407988
000190 09 49 3c 3c d0 0c 84 3d a9 6b 5f bc 54 f7 ef bd
       0.011492022 0.06447756 -0.013636508 -0.11717096
0001a0 da 34 1e be 03 ca 84 3d 39 bc 85 3c ea f1 ae bd
       -0.15449849 0.06483843 0.016325103 -0.08542235
0001b0 8b 08 13 3e 52 4a 22 be 8c e1 f0 bd c9 d4 08 be
       0.14358728 -0.15848663 -0.1176177 -0.13362421
0001c0 ed 33 04 be b0 f8 f7 bc 1d ea 8e bd ca 0d 20 3e
       -0.12910433 -0.03026995 -0.06978247 0.1563026
0001d0 fe aa 8f 3d 45 eb 6d be 2b 43 ef bd c2 1f 36 3e
       0.07015036 -0.2323428 -0.11682733 0.17785552
0001e0 24 33 35 be 31 2a 83 3e c6 a6 15 be 62 00 4c 3e
       -0.1769529 0.25618127 -0.146144 0.19922021
0001f0 39 31 27 be b4 f4 0b be 7d f2 58 bd e2 e8 57 be
       -0.1632737 -0.13667566 -0.05296563 -0.21084931
000200 4e 8c e6 3d 8b 80 88 bd d9 cb b8 bd ea bf 3d 3e
       0.1125723 -0.066651426 -0.09023256 0.1853024
000210 7a a0 08 3e 21 20 15 3e 8b fb 4c bd e7 4d 58 3e
       0.13342467 0.14563037 -0.050044578 0.21123467
000220 cd 59 3b 3d e3 67 89 bd e4 83 37 3e 37 cf 2d be
       0.045739938 -0.06709268 0.17921406 -0.16973577
000230 0a ca 65 3e d6 de d8 ba a8 9e 2d bd 6b e0 c5 3d
       0.22440353 -0.0016545902 -0.042387635 0.09661945
000240 98 e1 a3 bd e9 13 10 be 50 9b 00 be 9f 44 c3 bd
       -0.08002013 -0.14070095 -0.12559247 -0.09534573
000250 3b 00 2e bc 28 07 da bd 00 dd 27 3e d4 43 05 be
       -0.010620172 -0.10645896 0.16392899 -0.13014156
000260 2e 2e 31 be 4e 95 90 bc 48 58 c8 bd 47 de 63 3d
       -0.17302772 -0.017649319 -0.09782463 0.055631902
000270 ba b1 05 3e b3 cf 95 3c da d7 e0 3d 54 df 98 3d
       0.13056079 0.018287515 0.109786704 0.074644715
000280 c9 e3 42 3c 89 96 64 3d 32 8f 09 bb 8d c9 ed bd
       0.0118951285 0.055807624 -0.0020989892 -0.116107084
000290 9a b8 24 be 1b 8f 05 3d 0f 2d 59 be 92 66 3e be
       -0.16086045 0.03260718 -0.21208595 -0.18593815
0002a0 26 ee 40 be 6d cd 14 be 3f 73 19 3e 49 80 05 3d
       -0.18840846 -0.14531489 0.14985369 0.032593045
0002b0 d9 4a 08 bd 31 1a 24 be 6b 7e 97 bd bd 11 a2 3d
       -0.033274505 -0.16025616 -0.07397159 0.079135396
0002c0 f2 a8 a2 3d c1 87 5c bd c6 0d 13 3e c9 65 be bc
       0.0794238 -0.053840403 0.14360723 -0.023241894
0002d0 a3 79 46 3e 54 2d c0 3c 6a 5c 44 3e 06 2a 2b be
       0.19382338 0.023459114 0.19175878 -0.1671525
0002e0 56 5b b7 3d b2 72 95 3d 3b 11 32 3e 82 43 0a be
       0.08952968 0.07297267 0.17389385 -0.13502315
0002f0 d5 d8 5a be 7c 3b c1 3d 77 99 fe 3d 50 bb 50 3e
       -0.21371777 0.09435174 0.12431615 0.20383954
000300 1f 34 3f bd 44 24 bc 3d b1 c1 f9 3c 8c c5 18 3c
       -0.046680566 0.091866046 0.030487867 0.009324443
000310 ac bf 11 be 9e 42 3d be 5d 5b 4d 3d 2a 46 84 3c
       -0.14233273 -0.18482444 0.05013596 0.016146738
000320 c2 de a0 bc 40 87 d7 bd 02 fd 78 be 4b 8b 11 3e
       -0.01963747 -0.10523844 -0.24315265 0.14213292
000330 ca 14 df bd e6 db ad 3d 5e 36 8b bd f3 4f 30 be
       -0.10892637 0.08489208 -0.06797479 -0.17217998
000340 93 39 3a be 4a fe 3c be 23 66 d2 bd 41 1b 89 bd
       -0.18186025 -0.18456379 -0.10273387 -0.066946514
000350 d9 b4 c8 3d 4f 45 32 3e e6 75 ee 3d 4a 3e 17 be
       0.09800119 0.17409252 0.11643581 -0.14769855
000360 15 f4 32 3e 7b 7a 4f bd ce 49 10 be b7 f1 8f bd
       0.17475922 -0.050653916 -0.14090654 -0.07028525
000370 44 bb 9c bd b0 31 fb bd 97 f9 b3 bd 9c 6f 4f bd
       -0.076529056 -0.122653365 -0.0878784 -0.05064355
000380 21 cb 4e bd ce c7 71 3e a6 b6 45 3e 12 36 c5 bc
       -0.050486688 0.23611376 0.19307956 -0.024073634
000390 c9 68 23 3e 86 af ac bd 4f 2d 9b 3c 5a 45 51 3e
       0.15957941 -0.08431916 0.018942503 0.20436612
0003a0 cf a1 aa 3d f6 cd 8a bd 01 f9 20 3d 19 b8 01 be
       0.08331644 -0.06777565 0.03929997 -0.12667884
0003b0 76 39 26 be 1a c6 86 3d 24 17 f1 bd 6f 5f 59 3e
       -0.16232857 0.065807536 -0.11771992 0.21227811
0003c0 ad 52 a8 3d ca c3 a2 3d ed b5 92 3d 60 a7 5e 3d
       0.08218894 0.079475 0.07163606 0.05435884
0003d0 79 cd ab ba 90 42 46 3e 31 af 15 be 73 8b 97 3d
       -0.00131075 0.19361329 -0.14617611 0.07399645
0003e0 80 78 9d 3d 75 20 49 3e 59 63 b8 bd 96 42 d9 3c
       0.07688999 0.19641288 -0.09003324 0.026521008
0003f0 35 2e 2b be 07 b9 1a be 06 c7 46 bd 0c df 8d bd
       -0.16716845 -0.15109645 -0.048529647 -0.069273084

arith.constant2 f4 [256, 64]
000000 ad 30 82 3d e9 6f b0 bc 37 d1 57 bc 01 86 3c bd
       0.063569404 -0.021537738 -0.013172439 -0.046026234
000010 99 eb d4 bd 83 94 7c 3d 9f 92 86 3d ff 8d 30 3e
       -0.10396499 0.06166507 0.065709345 0.17241667
000020 6f 59 81 3d d7 64 15 be 88 15 00 3e 3a 13 bb bd
       0.06315886 -0.14589249 0.12508214 -0.091345266
000030 eb 91 d7 bd 43 06 09 3e b2 62 8c 3c e8 cd d3 3d
       -0.105258785 0.13381295 0.017136905 0.10342008
000040 73 c4 a6 3d 3c b5 14 3d 33 ba d8 3d e8 84 cb 3d
       0.081429385 0.03630565 0.1058239 0.09937459
000050 26 fd b0 3c 70 22 05 3e dc a3 99 3d eb 11 0d 3e
       0.021605086 0.13001418 0.07501957 0.13776366
000060 85 80 5a 3c 1a 82 bf b8 2e 21 1e bd 53 b7 bb 3c
       0.0133363055 -9.131823e-05 -0.03860586 0.022914564
000070 d7 b2 14 bd f0 e3 62 bd 67 98 45 bd 0d 1b 46 bd
       -0.036303367 -0.05539316 -0.048241045 -0.04836564
000080 7d 3d 01 3e 80 6c 97 3d 48 8e 00 3e 80 71 b0 3d
       0.12621112 0.073937416 0.12554276 0.086153984
000090 d8 b6 b0 3d 2e 70 15 3e b1 bd d4 3d a7 85 06 be
       0.08628625 0.14593574 0.10387743 -0.13136922
0000a0 64 fb fc bd 77 50 15 3d 87 33 d9 bd ba c8 e3 3d
       -0.123526365 0.03645369 -0.10605531 0.1112227
0000b0 fa 50 6f 3a 54 7f 07 3e 2c 1e 95 ba df 80 e1 3c
       0.0009129193 0.13232166 -0.001137679 0.02752727
0000c0 21 de 71 3d ff 37 06 be 24 ae f6 bd eb 53 f0 3d
       0.05904973 -0.13107298 -0.120449334 0.11734756
0000d0 d7 f7 f2 bd e6 d7 f8 3d 33 dd fb 3d 15 d0 40 bd
       -0.11863678 0.12150554 0.1229805 -0.047073442
0000e0 26 e8 14 bd f4 56 3e 3d 11 c7 bd bd 6d 47 46 3d
       -0.036354207 0.046469644 -0.092664845 0.04840796
0000f0 21 59 7b bb 92 bf 8e 3d 7d 32 12 3e e8 92 2a be
       -0.0038352686 0.06970133 0.14277072 -0.16657603
000100 1d 12 cd 3d c0 b1 f3 3c 2f cd 00 be be ca 95 3d
       0.100132205 0.029747844 -0.12578271 0.07314061
000110 04 24 23 be d1 99 00 3e a8 f5 cc bc ab 00 3d 3d
       -0.15931708 0.12558676 -0.025019482 0.046143215
000120 96 d2 9c bc 10 4e b1 3b 48 72 16 be d9 74 e6 bc
       -0.019143384 0.005410917 -0.14692032 -0.02813189
000130 f1 17 6f 3d 52 15 15 3d 8f cb b1 3d ef f3 58 3a
       0.05837244 0.036397286 0.08681404 0.0008276095
000140 4f 78 e0 bd 01 47 f8 3c 47 af 9e bd 3c 37 72 3d
       -0.10960447 0.030307295 -0.07748275 0.059134707
000150 72 69 8d bd da 1b a2 bd 2e 76 19 3d f8 c2 f2 bd
       -0.06904878 -0.079154685 0.03746622 -0.118535936
000160 de 31 44 3d 4d f5 d6 3c 1c 90 1e 3e 1f 48 f7 3c
       0.04789912 0.026240015 0.15484661 0.030185757
000170 f2 d6 69 3c bb cd 4b 3c 69 1f 49 3e 1a 75 cb bb
       0.014272438 0.012439187 0.19640888 -0.006209028
000180 f3 8b 02 3e d0 71 09 3d c5 1f 82 bd 52 7f ca bd
       0.12748699 0.033555806 -0.06353716 -0.09887566
000190 3a e3 32 3d 13 c4 95 3d b3 e9 b6 3d cd 80 7d bb
       0.04367373 0.07312789 0.08931293 -0.0038681508
0001a0 5a 69 23 be c4 d1 33 bd f4 b4 06 be b9 13 dd bb
       -0.15958157 -0.04390122 -0.13154966 -0.006746736
0001b0 f2 54 7d b9 41 c6 4d 3d a4 ed 69 3d 0b 0a d7 3d
       -0.00024159605 0.050237898 0.057111397 0.104999624
0001c0 15 2e ae bd 42 43 db 3d 0e 6f f3 3d e0 93 81 bd
       -0.08504883 0.10706188 0.118864164 -0.06327033
0001d0 6a 26 11 3d 87 a8 80 3b 19 14 89 3d 53 15 66 bd
       0.035437025 0.00392634 0.066932864 -0.05617268
0001e0 a8 d9 b8 3c 19 f7 84 bc 99 d7 9c bc 4e 62 02 3a
       0.022564724 -0.016231107 -0.019145774 0.0004973755
0001f0 9f 95 d6 bd 9f a0 fd bd 6f 5c ec 3d c0 97 9b 3d
       -0.10477757 -0.12384152 0.11541068 0.075973034
000200 ad 3b 12 3e 0c 05 27 3e 84 ac 60 3d 4b 7c e0 bd
       0.14280577 0.16310519 0.054852024 -0.10961207
000210 a4 5f c3 3d 8e a4 12 bd 61 73 b1 bb e4 06 0a 3d
       0.095397264 -0.035801463 -0.0054153656 0.033697978
000220 56 c5 c1 bd 82 35 df bd 72 98 be bd 2a 8d 60 3d
       -0.09461467 -0.10898878 -0.093064204 0.054822125
000230 c2 3a 45 bd 96 30 ca 3c 37 d2 f0 bd 83 2b d3 3b
       -0.04815174 0.02468137 -0.11758845 0.006444396
000240 f1 46 da 3c ee da 1c be 78 fe bd 3c 92 02 78 bd
       0.026645156 -0.1531789 0.02319263 -0.060549326
000250 ff be b9 3c 07 bf 5b 3d 43 e5 1f 3e 4f f2 02 3e
       0.022674082 0.053648975 0.156148 0.12787746
000260 bd 64 c1 bd d9 23 d8 bd 6d ae f7 3d 7f cf a4 bd
       -0.094430424 -0.105537124 0.12093816 -0.08047389
000270 f0 7c f2 bd 4d 86 c7 bd 9e 3a 32 3c f4 c9 95 3d
       -0.11840236 -0.09742413 0.010878233 0.0731391
000280 29 97 78 bc e0 24 f2 3d 65 65 8b 3c d9 76 df 3d
       -0.015172758 0.118234396 0.017016122 0.1091134
000290 3b 6f 84 bd c9 08 fb 3d 24 65 b4 bc f5 1f 0c 3d
       -0.06466528 0.12257535 -0.022020884 0.034210164
0002a0 40 f5 32 bd b2 17 e6 3d 15 01 a9 3d 37 ea 40 3d
       -0.04369092 0.11234988 0.082521595 0.047098365
0002b0 87 39 e9 bc d2 28 75 bc d2 c5 b2 3d 63 1f 5b bd
       -0.028469814 -0.014963346 0.087291375 -0.05349673
0002c0 45 65 cd bc e5 27 a5 3d dc 53 04 be 9d 4b b6 bd
       -0.025072703 0.0806425 -0.12922615 -0.08901141
0002d0 20 4d 6e bd 23 76 e1 3d 85 91 81 bb 2a fc 9f bd
       -0.05817902 0.11008861 -0.003954115 -0.07811768
0002e0 b3 26 c6 3d 63 c9 b9 bd ff b2 8f 3d 00 0d b1 bd
       0.0967535 -0.090716146 0.07016563 -0.08645058
0002f0 6a 33 1a be b3 ec e6 3c 62 62 0c bb d3 e0 9a 3d
       -0.15058675 0.028189039 -0.0021420945 0.07562413
000300 91 1d ed bd 7d a8 77 3d e2 92 22 3d 7f f0 2c 3d
       -0.11577905 0.060463417 0.03969086 0.042221542
000310 b6 2c 2d bd 3d ac e6 3d b4 c5 84 bd 80 f9 51 3d
       -0.042278968 0.112633206 -0.064830214 0.051263332
000320 60 ee 14 bd 0d 80 68 3d 6d 10 33 3e ba 8e 44 bd
       -0.036360145 0.056762744 0.17486735 -0.047987677
000330 66 07 18 3e 7a 40 ed 3c 66 ce e6 3d db f2 31 3c
       0.14846572 0.028961409 0.11269836 0.010861124
000340 22 bb dd bd 37 09 d2 bd c2 47 17 3d c5 95 db 3a
       -0.108267084 -0.10255664 0.036933668 0.0016753009
000350 06 ec d8 bd 79 96 b5 3d 53 9d 81 bb 34 7f 56 bd
       -0.10591893 0.08866591 -0.003955522 -0.052367404
000360 f6 5f 86 bd 42 89 e1 bd 22 56 c7 bd ad 9a 86 bd
       -0.06561272 -0.11012508 -0.097332254 -0.06572471
000370 3f d6 98 3c 47 0b 61 bc a5 5f 77 3d 4e bb b0 3d
       0.018656848 -0.013735599 0.060393948 0.086294755
000380 26 f2 be bc ce 44 39 3e 5c 5d 9c 3d 2a ef e0 bd
       -0.023308825 0.18092653 0.076349944 -0.10983117
000390 5a 17 7e bd ef 09 1d 3e d1 67 3a 3d c4 2d cc bd
       -0.06203399 0.1533582 0.045509163 -0.099696666
0003a0 2a ba 50 bd 26 d2 12 3c 20 97 05 be 65 ad 80 3d
       -0.05095879 0.008961236 -0.13045931 0.062830724
0003b0 b3 52 81 3d b5 7a a6 bd ec d4 01 be bf c7 af bc
       0.06314602 -0.08128873 -0.1267888 -0.021457551
0003c0 c5 88 17 3e bd 87 1e be e7 f6 dc 3d e7 61 9f bd
       0.14798267 -0.15481468 0.107892804 -0.07782345
0003d0 62 05 0e be 32 17 35 3d ce 1c ea 3d fd 74 64 bd
       -0.13869241 0.044211574 0.11431275 -0.05577563
0003e0 d5 0c 96 bd 66 78 ac bd 42 89 f5 bc 8b e0 19 be
       -0.07326666 -0.08421402 -0.029972676 -0.15027063
0003f0 32 17 95 3d 23 5f 51 3d 21 20 e9 3d a7 cf c3 3d
       0.07279815 0.05111612 0.11383081 0.09561091

arith.constant3 f4 [256, 64]
000000 91 0d da bc f5 33 b3 bc 5e 45 b7 3d 48 69 fe bc
       -0.026617797 -0.021875361 0.089487776 -0.031056061
000010 50 16 2b bd 83 fb 8f 3d 24 93 24 3d 1a 19 e5 3b
       -0.041769326 0.07030394 0.040179387 0.0069915177
000020 6a b0 e6 bc cb 44 9f 3b bb 14 95 3d 88 89 2b bd
       -0.028160293 0.0048604957 0.07279345 -0.041879207
000030 4f 36 75 3d 12 5d 13 bd 03 8a 46 3d 5b fc 1d 3d
       0.059866246 -0.03597743 0.048471462 0.038570743
000040 bf c5 ba bc 71 21 0e 3e 03 67 ff bb 9f b3 ad 39
       -0.02279937 0.13879944 -0.0077942624 0.0003313096
000050 df 5f a6 3d b8 87 15 3d b7 de 02 3e f2 08 08 3d
       0.08123755 0.036506385 0.12780271 0.033211656
000060 92 6c 80 bc 44 5d 02 3e b4 e5 63 bc 0f 87 39 bd
       -0.01567677 0.1273089 -0.013909746 -0.045294818
000070 a2 80 0f bd c9 c0 85 3c 33 aa 44 3d a1 c8 af bc
       -0.035034783 0.016327279 0.048013877 -0.021457972
000080 86 1f ad 3d 69 5e 00 be c5 11 11 bd 31 87 30 3d
       0.08453278 -0.12536015 -0.035417337 0.04309768
000090 dd 44 69 bc a1 23 bc 3d ca f6 6b 3d e4 9b 46 bd
       -0.01423761 0.09186483 0.057608403 -0.048488513
0000a0 43 18 7b bc 8c 93 8e 3b c6 e0 8e 3d 0e 9b c2 bc
       -0.015325609 0.004351085 0.06976466 -0.023755576
0000b0 fb fa 50 3c 1b 26 01 3c 2e 24 ca 3c 95 71 08 3d
       0.012755151 0.00788262 0.024675455 0.033311445
0000c0 e9 41 04 be 83 23 0c 3e 64 b2 16 bd 8e 3a 15 bc
       -0.12915768 0.13685422 -0.03679122 -0.009108199
0000d0 8a f0 1e 3d 16 4c 28 3d 92 61 09 bd 45 f3 3b 3c
       0.038803615 0.041088186 -0.033540316 0.011471574
0000e0 3b 04 47 bd 84 a6 dd 3c a4 8a 5a bd e5 8e 88 3c
       -0.04858802 0.02705694 -0.053354874 0.0166697
0000f0 54 55 b8 3d ee c1 35 3c 06 35 1d 3e f2 e1 55 3b
       0.0900065 0.0110936 0.15352258 0.0032635895
000100 2f b2 f8 3d ee 51 09 bd 1f 73 8b bc 52 d9 1e 3e
       0.12143361 -0.0335254 -0.017022667 0.15512589
000110 88 49 84 3d 23 c7 89 bd e1 7a 31 3d e0 96 ae bd
       0.064593375 -0.067274354 0.043330077 -0.08524871
000120 1c 63 f2 3d e4 52 7e 3c 6f 9b 54 bd b9 f0 fe 3d
       0.1183531 0.015522692 -0.051906046 0.12448258
000130 f5 69 04 3e 12 7a 4b bd 74 1f 1a bd e6 71 08 3d
       0.12931044 -0.049676962 -0.037627652 0.033311747
000140 10 a1 b7 bd b9 38 81 3d b6 c4 cd bc ea 71 b9 bc
       -0.08966267 0.06309647 -0.025118213 -0.022637326
000150 17 3f 88 3d eb 03 ee bd e4 03 e6 3d 65 d0 2e bd
       0.066526584 -0.11621841 0.11231211 -0.04267921
000160 e3 92 83 bc 50 74 01 3c 29 2d 35 bc 23 b9 87 bc
       -0.016061252 0.007901266 -0.01105813 -0.016567772
000170 33 04 1c 3d 3a ff b8 3d 64 fb 86 3d 4e 08 eb 3c
       0.038089942 0.090330556 0.06590918 0.028690483
000180 58 56 0b bd 05 14 0b 3d 8f a6 38 3d bf cc ae 3c
       -0.03401789 0.03395464 0.045080718 0.021337865
000190 95 d9 81 bd 30 d3 cf bc d8 31 71 bd eb b8 95 bd
       -0.063403286 -0.025369257 -0.058885425 -0.07310661
0001a0 b6 2f 0a 3e be 53 83 3d e3 67 a7 bc 24 35 d3 3d
       0.13494763 0.06412457 -0.02043528 0.1031287
0001b0 8b d6 ea bc 02 aa ad 3c b3 ba f5 3d 9c 5f d3 3c
       -0.028666755 0.02119923 0.11998501 0.025802426
0001c0 69 e1 07 3e 56 73 32 3e 22 56 f0 3c 0a e1 e4 3d
       0.13269581 0.1742681 0.029337946 0.11175735
0001d0 54 0d 92 3d 8a 2c 30 be dd d5 9f 3d b7 ad fa 3b
       0.071314484 -0.1720449 0.07804463 0.007650103
0001e0 9e db dc bc 12 02 05 3e c7 b3 af bd 84 99 e4 bc
       -0.02696019 0.12989071 -0.08579212 -0.027905233
0001f0 de e9 c7 bd a0 79 01 3c 29 25 3f bd 68 94 5f bc
       -0.097614035 0.007902533 -0.046666298 -0.013646223
000200 6b 76 47 bd 07 41 39 bc 2f 76 00 bd 0d 03 e6 bb
       -0.048696917 -0.011307008 -0.03136271 -0.0070194067
000210 34 54 9e 3d 75 07 18 3e b4 0d 21 3e c2 05 ca bd
       0.07730904 0.14846595 0.15727884 -0.098643795
000220 2e 31 8b bd bb c5 da 3d c7 73 2d be 6d c4 17 3e
       -0.0679649 0.10682245 -0.16938697 0.14821024
000230 0a bd a7 3d c9 db ef bb cb a0 86 3b 5e 58 c5 bc
       0.08190353 -0.0073199016 0.0041085235 -0.024089988
000240 50 c9 21 3d ef a5 69 bd a0 e7 74 3d 3a 1d 04 bd
       0.039498627 -0.057043012 0.059791207 -0.032254435
000250 5b 2c 91 bd 6b 3c 9e bc 22 1e 7e 3c eb 93 9f 3d
       -0.07088538 -0.019315919 0.015510114 0.07791885
000260 17 7e d4 3b 19 57 f6 bd 0b 79 1c 3d dc af 87 bc
       0.0064847576 -0.12028331 0.038201373 -0.016563348
000270 94 3a 88 3d c2 fe 9e bb 9b ab 83 3d b3 3c 79 bd
       0.06651798 -0.004852147 0.064292155 -0.060848903
000280 af f3 05 3a dd fb cb 3c fc 11 20 be 2e 93 19 bd
       0.0005109859 0.024900371 -0.1563186 -0.037493877
000290 c1 b7 ca 3b a1 ea 04 3b ea 59 06 be e1 96 c7 3b
       0.006186456 0.0020281451 -0.13120237 0.006090984
0002a0 85 0e c2 bb 1d fc 0a 3e a9 31 d0 bc 24 ad c0 bd
       -0.005922141 0.13572736 -0.025414305 -0.09408024
0002b0 a3 71 dd bc be 04 a7 3c d9 90 8a bc a0 d6 81 3d
       -0.027031725 0.020388003 -0.016914772 0.063397646
0002c0 06 3b dc bc 5c 2c c1 3d 5f 91 07 bd f0 67 f2 3b
       -0.026883613 0.09432289 -0.03309762 0.007397644
0002d0 af fd 07 3d 5d 8c 26 bc 02 8a 89 bc dd 32 c5 3c
       0.033200916 -0.010165301 -0.01678944 0.024072105
0002e0 5b 6e 11 3e 5c a3 85 3b 9e 1e 9e 3c e7 8c f4 bc
       0.14202254 0.004078312 0.019301709 -0.029852344
0002f0 6d a8 8f bc 98 9f 78 3c ec 1e c4 bc b4 a4 58 bc
       -0.017536366 0.015174769 -0.023940526 -0.013222862
000300 0e db 4c be 97 d9 9b 3c 2b 0a 9b 3d 20 fe 0f bd
       -0.20005438 0.019024653 0.07570299 -0.03515446
000310 b8 cb 15 bd 29 20 0e 3c 1e da 02 3e 2b 5b e4 3c
       -0.036571234 0.00867466 0.12778518 0.027875504
000320 c0 f7 1e bc e9 6e c3 bc d0 e9 06 be 0e 00 8b 3c
       -0.009702623 -0.023856597 -0.1317513 0.0169678
000330 40 ec a7 3c 9b ab cc 3a 82 c4 3b 3d 7b 25 83 bd
       0.020498395 0.0015615107 0.0458417 -0.06403633
000340 75 58 7d 3d 8f c1 30 3d 68 c2 3d bd d4 1e 51 be
       0.061851937 0.04315334 -0.04632798 -0.20421916
000350 da 89 8a bb b2 7d c1 bc e6 22 50 3e 00 cf 18 be
       -0.004227859 -0.023619507 0.20325813 -0.14922714
000360 a5 12 19 bd 00 41 ef bc a9 7b e3 bd 15 10 28 3d
       -0.037371296 -0.0292058 -0.11107571 0.041030962
000370 fb ce 44 bd 8d d7 c9 3b 50 ae 9d bd 7f 7e fa 3b
       -0.048048954 0.006159729 -0.07699263 0.007644474
000380 15 a5 a8 3b 35 7b 63 bd 72 51 aa 3c 55 46 82 3d
       0.0051466324 -0.05553742 0.02079079 0.06361071
000390 3c a7 d6 bc dc 8c 90 3d d2 f8 9b 3b 30 cb b5 3d
       -0.02620279 0.07058117 0.0047598863 0.088766456
0003a0 68 83 d7 3d 47 b8 69 bc 11 d6 64 3b 2c 68 88 3d
       0.10523111 -0.014265127 0.0034917633 0.06660494
0003b0 15 2d de bd 11 8e 90 3d 3d de 83 3d 2b 61 d0 3c
       -0.108484425 0.07058347 0.06438873 0.025436958
0003c0 49 40 0a bd f5 e0 af 3c 3b 3f 8c 3d ef 91 8e bd
       -0.033752713 0.021469573 0.06847998 -0.069614284
0003d0 de 39 08 bd 16 2c b4 bd 19 41 94 bd c1 e2 36 3d
       -0.03325831 -0.08797471 -0.07238979 0.044649843
0003e0 d8 c5 4c 3a 4b 89 c9 ba 48 f1 bb 3d 9c 09 c8 bd
       0.00078114634 -0.0015376 0.0917688 -0.09767458
0003f0 a3 94 f6 bd 04 5a 30 3e 93 9e d6 bc d0 ef b4 bd
       -0.12040069 0.17221838 -0.026198661 -0.08834803

arith.constant4 f4 [256, 63]
000000 fa 89 cd bd bb 7d cc 3d 96 b2 16 3d e5 ac f2 3d
       -0.100360826 0.09984919 0.036791407 0.11849383
000010 46 db 00 be d5 6b e6 bd 67 be a2 3c 43 43 4e 3d
       -0.12583646 -0.11251036 0.019866182 0.050357115
000020 9b b9 c4 3d 8d 54 fa bb b9 08 d3 bb ec 6b ef bd
       0.09605714 -0.007639474 -0.006440249 -0.11690506
000030 e7 2e 8b 3d 35 64 02 be 04 26 5d bc c2 06 9c 3d
       0.06796055 -0.12733538 -0.013497833 0.076184765
000040 82 22 3e bc 19 9a 9e 3c 41 d9 9a 3c bc 77 59 bd
       -0.011604907 0.019360589 0.018902423 -0.053092703
000050 ba 34 23 be 02 87 e2 bd 36 78 49 3c 84 35 1b bc
       -0.15938082 -0.11060907 0.012296727 -0.009473208
000060 8b 6b 36 bd d9 88 80 bd 38 f1 74 3c c9 1c f0 3c
       -0.044536155 -0.062761016 0.014950089 0.0293106
000070 4c f9 e1 3c ef f4 59 bc 65 7d 92 bd 35 28 b9 3d
       0.027584694 -0.013303026 -0.07152823 0.09040872
000080 76 23 e4 bc 92 b6 59 3b 04 63 31 bd ea cd ad 3d
       -0.02784894 0.0033220393 -0.04330732 0.084865406
000090 8d 73 a4 bd 4a 53 2d bd f7 7f 2c bd 5d 63 3d 3d
       -0.08029852 -0.04231576 -0.042114224 0.04623734
0000a0 6c e7 c8 bd 83 c4 16 be be c9 94 3d 08 d9 3f bb
       -0.09809765 -0.14723401 0.07265042 -0.0029273648
0000b0 b4 c1 e9 3d 4a f2 08 3d 4c 0a 77 bc fc 48 02 bd
       0.11413899 0.03343419 -0.015078139 -0.031807885
0000c0 f9 13 f8 bd 77 d6 97 bd d7 ea ba bd 11 2d 49 3d
       -0.121131845 -0.07413953 -0.091268234 0.049115244
0000d0 92 ac ff bd 6f 7d b5 bc 11 43 b7 3c d3 da b9 3d
       -0.12484087 -0.022154538 0.022370847 0.090749405
0000e0 28 96 f8 bd 5f 3a 54 bd 94 6c 96 3c 9e d5 da bd
       -0.12138015 -0.05181348 0.018362321 -0.106852755
0000f0 e3 c8 be bd 40 5f 08 3d 9f bd e5 bd 38 b5 fc bd
       -0.0931566 0.033293962 -0.11217808 -0.12339252
000100 a0 19 c2 3d d1 36 c0 3b bc c2 f4 bd 41 aa 79 bc
       0.09477544 0.0058659096 -0.11951205 -0.015238346
000110 5f c6 c2 bd 98 a6 b8 bb 7f 02 7d bd cb b1 08 3e
       -0.095104925 -0.005635094 -0.06176996 0.13349073
000120 3e 41 0a bd 8b 13 b4 3d 0c b7 de 3c a1 5c 78 bd
       -0.033753626 0.0879279 0.027186893 -0.060635213
000130 ee b5 ce 3d 70 45 a2 bc 90 f8 ae 3d 5a 89 f7 bc
       0.10093294 -0.019808501 0.08543503 -0.030216862
000140 ea 7e c1 bc 9e 45 8d bd af f3 f7 3c 94 d5 4e 3b
       -0.023620088 -0.06898044 0.030267565 0.0031560408
000150 26 d6 01 3e f6 31 f3 bd c0 e7 fa 3d 83 de d0 bd
       0.12679347 -0.11874764 0.12251234 -0.10198691
000160 8b 7e e1 3d e2 65 a1 3d 50 36 0a 3e 4f 39 71 3d
       0.11010464 0.07880761 0.13497281 0.058892544
000170 09 72 22 bd 3e 9f f7 bc 8e c0 a6 bd 24 bd cd 3d
       -0.039659534 -0.0302273 -0.08142196 0.10045841
000180 dc 1e 29 bc 4e bd 03 bd 99 a4 2f 3d 57 d7 47 bd
       -0.010322299 -0.032162957 0.042881582 -0.04878935
000190 7b 7b a4 3d e5 26 b4 3d b9 47 ae 3d ba fd 0f bd
       0.080313645 0.08796481 0.08509774 -0.035154082
0001a0 1b 28 ca bd dc a9 0b 3e 01 b0 d5 3d 5e 40 b9 bd
       -0.09870931 0.13639015 0.10433961 -0.0904548
0001b0 8e 71 37 bc 41 02 bb 3d b0 0d cf bd 03 63 dc bd
       -0.011196507 0.09131289 -0.101100326 -0.107610725
0001c0 67 d5 88 bd 24 9c 42 bd 8e 78 d0 3d 84 21 0f bd
       -0.06681328 -0.04751219 0.10179244 -0.034944072
0001d0 51 fc 62 bd 6a 4b ab 3d 25 77 82 bc ad 10 e1 3a
       -0.05541641 0.083639935 -0.015925953 0.0017171107
0001e0 75 06 21 bd 20 9b 08 bd a3 eb a6 3d 24 ae dc 3d
       -0.0393128 -0.033351064 0.08150413 0.10775402
0001f0 89 c3 bd bd b6 b3 31 bd 09 af a5 3d 58 1f f5 bd
       -0.09265811 -0.043384276 0.08090026 -0.11968869
000200 08 44 b2 3c 9f 48 12 3e 00 f9 da 3d a9 56 85 3d
       0.021760955 0.14285515 0.10692024 0.0651067
000210 05 e1 9c bd 3b ee ee 3d ba a0 f3 3d 24 b4 db bd
       -0.076601066 0.116665326 0.118958905 -0.107277185
000220 62 86 9f 3c 00 b0 f3 3d b5 67 10 3e 4d 58 cf bd
       0.019473258 0.11898804 0.14102061 -0.10124264
000230 a1 af cd 3d b4 92 d0 3d 4d 46 0b 3e aa 0f 99 bc
       0.10043264 0.101842314 0.13601036 -0.018684227
000240 4d 54 3c 3d 7e 28 73 bc 6c 1b a0 bc 70 05 9f bd
       0.045978833 -0.014841197 -0.019544326 -0.07764709
000250 a6 25 d3 3c e6 7f da bd 86 0b fb bc fa 66 f4 3d
       0.025774788 -0.10668926 -0.030645143 0.11933704
000260 d4 1d b4 bd bd 7f a4 3d 5e 10 d5 3d ce 5b e0 3c
       -0.08794752 0.08032177 0.104035124 0.027387526
000270 cc af 46 bd eb 08 54 3d 31 c2 73 3d dd 51 a8 3d
       -0.048507497 0.051766317 0.059511367 0.08218739
000280 4e c1 34 3b 93 fd 3e 3d b5 91 52 bd 70 30 21 bb
       0.002758104 0.046628546 -0.05140849 -0.0024595521
000290 16 51 8d bd e6 39 9e 3d b1 0d af 3d f9 a8 60 3d
       -0.069002315 0.07725887 0.08547533 0.054848645
0002a0 ab 84 9b 3d 47 6b e4 bd f4 b9 ff 3d bc 10 b7 3d
       0.07593664 -0.11153274 0.124866396 0.08938739
0002b0 b0 13 7d bc 65 41 f7 3d 48 ab 03 be ed 23 b2 bc
       -0.015446588 0.1207302 -0.12858307 -0.021745646
0002c0 1d 53 03 3e cd fa 17 3d 4e 48 b9 bd e3 7b f8 bc
       0.12824674 0.037104417 -0.09046994 -0.030332511
0002d0 e0 46 e6 3d 7f 9e b1 3d 62 ac 0a bd 0e 81 ad 3a
       0.11243987 0.08672809 -0.033855803 0.0013237314
0002e0 41 a5 90 bd 4d 27 ec 3d af 9b f5 bd 17 54 55 3d
       -0.0706277 0.115309335 -0.11992585 0.052082147
0002f0 87 10 89 3d b0 a6 82 bb 20 8f 66 bd 43 0e e4 3d
       0.066926055 -0.003987156 -0.05628884 0.11135533
000300 26 a8 25 bd 1c 4b ec bd 84 82 ee 3c b5 9c 07 be
       -0.040443562 -0.115377635 0.02911497 -0.13243373
000310 9c b1 ba 3b 78 8a c1 bc 4c 8b ac bd 34 0a 12 be
       0.005697442 -0.023625597 -0.08425006 -0.14261705
000320 46 93 6f bd 6b 2d 29 bd 3a 65 e8 bd af 30 0b 3e
       -0.05849006 -0.04130308 -0.113474324 0.1359279
000330 a3 5a ee bd 5f 21 96 3d 08 3e be 3b 92 95 01 3d
       -0.11638381 0.07330584 0.0058057345 0.031636782
000340 13 e1 ed 3c 8e bb 02 be 24 e0 8c 3d 4b a9 7e bd
       0.029037988 -0.12766859 0.06878689 -0.06217317
000350 ba ad bd 3d 99 b1 82 3c 0b 04 0a bd 54 a5 03 be
       0.09261651 0.015953826 -0.033695262 -0.12856036
000360 79 81 cc 3d 36 e7 e0 3c f1 c2 8d bb 8a 94 29 3c
       0.099856324 0.027454 -0.0043262173 0.010350356
000370 f3 9f 35 3d 7a 12 ae 3c b0 f9 e2 bc 8b 10 ef bc
       0.044341993 0.021249045 -0.02770695 -0.029182693
000380 fd 7d 92 3d 7e 86 21 3d ae 4e f5 3d 5c 35 dd 3d
       0.071529366 0.039434902 0.119778976 0.10801193
000390 fa 5f 88 bd f1 7c f3 bd d2 f1 27 3d db 61 f0 bd
       -0.06658931 -0.11889065 0.041002102 -0.117374144
0003a0 bf 1f 4d bc d7 3b 81 bd b3 57 b0 bd 0b 4f ba 3d
       -0.012519776 -0.06310242 -0.08610477 0.090971075
0003b0 66 97 e3 3d 10 ce e0 3d 6c 00 bd bd fc cf 51 bd
       0.11112861 0.10976803 -0.09228596 -0.05122374
0003c0 49 1b 01 be 26 3d f4 bd f0 21 7a bd 43 48 2d 3d
       -0.12608065 -0.11925726 -0.06106752 0.042305242
0003d0 b0 08 ea 3d ac e0 73 3d 54 89 73 bd 20 98 26 bb
       0.11427438 0.059540436 -0.05945714 -0.0025420263
0003e0 f7 fa ef 3c c3 cc fc 3d 72 23 61 3d dc ac 18 bc
       0.029294474 0.12343743 0.054965444 -0.009318557
0003f0 71 bc f5 3d b1 3e b8 bd ee c5 d8 3c fc 5c 0f bd
       0.11998833 -0.089963324 0.026461568 -0.035000786

arith.constant5 f4 [256, 64]
000000 f2 f1 55 bb 78 46 9e 3d 78 50 67 3c af f7 2e be
       -0.0032645431 0.077282846 0.014118306 -0.17086671
000010 d1 e0 21 3c 8a 00 01 bc 94 9f 03 bd 7c 2f a5 3c
       0.009880261 -0.007873664 -0.032134607 0.020164244
000020 e8 a2 99 3b 91 52 01 3d a4 6e 89 3d c8 6b a1 3c
       0.0046886094 0.031572882 0.06710556 0.019704714
000030 5c 43 4a 3c c2 fb 41 bb bb 3b b5 3b a2 a1 31 bd
       0.012345161 -0.0029599522 0.005530802 -0.043367036
000040 8b 5b 48 bd 7c e3 96 ba b2 ad 33 bb 43 c6 b2 3d
       -0.048915427 -0.0011511887 -0.0027416763 0.08729222
000050 94 d8 80 3d 34 1c 63 bc 3f de eb 3c 54 0d ad 3d
       0.06291309 -0.013861705 0.028792499 0.08449808
000060 e9 c6 f4 bc d3 b1 d6 bc 91 48 f7 bc d8 ea 7c bb
       -0.029880004 -0.02620784 -0.03018597 -0.0038592126
000070 77 17 8f bc ff b4 89 bd 4f 9d 2e bc 6a ef e6 3b
       -0.017467244 -0.067239754 -0.0106576225 0.0070475833
000080 b5 11 eb bd b2 3b 01 3e 50 c7 93 3d 92 69 42 bc
       -0.11477987 0.12620428 0.0721575 -0.01186599
000090 ee 58 76 bd 86 5b 26 3d 96 90 37 bc 80 41 b1 bb
       -0.060143404 0.040614627 -0.011203906 -0.0054094195
0000a0 b2 8b 79 3d d9 e7 f2 3c 37 5d 0e bd 0e 2b 90 bc
       0.06092424 0.02965157 -0.034756865 -0.017598655
0000b0 5b d4 fc 3d 08 6c 7b bd 85 2b 92 bb 73 e2 01 3b
       0.12345191 -0.061382324 -0.0044607543 0.0019818812
0000c0 d9 b6 b0 3d 48 7f 2e bc 03 6b 27 3d 29 fc 0e bd
       0.086286254 -0.010650463 0.04087354 -0.034908447
0000d0 fb b6 9f 3c c7 f0 6e 3d 34 c3 13 3e 79 22 e0 bc
       0.019496432 0.058335092 0.14429933 -0.027360188
0000e0 7b ee 00 3e c4 a3 d1 bb 38 45 88 bd d0 75 30 3c
       0.12590973 -0.006397696 -0.066538274 0.010770276
0000f0 ca 4f 67 bd 31 d0 d3 bd e0 9a 50 3d 53 13 49 bd
       -0.056472577 -0.10342444 0.05092895 -0.049090695
000100 04 6c a1 bd b3 fa 75 bd 33 67 26 bd b4 96 03 be
       -0.078819305 -0.06005354 -0.040625762 -0.12850457
000110 de 26 2c 3e 44 14 9d 3d 4e 95 e3 bd ba 86 2f 3b
       0.16811702 0.07669881 -0.11112462 0.0026783184
000120 b1 72 01 3c a0 3e f7 bc fb c4 1a be c1 cd 96 bd
       0.00790088 -0.03018123 -0.15114205 -0.07363463
000130 bb e2 1f 3c fd 57 39 bd 73 2c 6e 3d 8b 7e ee 3d
       0.009758647 -0.045249928 0.05814786 0.1164523
000140 16 7d 40 bc 7b 37 f3 3d 27 18 0d bb fa 78 88 bd
       -0.011748573 0.118758164 -0.0021529288 -0.066636994
000150 a7 21 c0 bd 76 23 0b 3e bf 01 ae 3c 37 3b 28 3d
       -0.09381419 0.13587746 0.021241067 0.041072097
000160 9a c2 c8 bd e5 ea 08 be 30 a0 e6 3d 50 03 0a be
       -0.09802742 -0.13370855 0.11261022 -0.13477826
000170 76 d6 a0 3d 2a 0f 53 bd 1d c6 1b bc d1 cb 8b 3d
       0.07853405 -0.051528133 -0.009507683 0.06825984
000180 80 3e 8e 3d 65 1c 86 bc 84 b9 fc bc c0 55 3d 3d
       0.06945515 -0.016370961 -0.03085018 0.046224356
000190 bf 38 0d 3e 9e 41 5f 3d a4 7d 96 3c 3b 8f af 3d
       0.13791178 0.054505937 0.018370457 0.08572241
0001a0 c1 07 15 bd e8 df 24 bd 32 06 ab 3d 9a 85 9f bd
       -0.036384348 -0.040252596 0.08350791 -0.07789154
0001b0 28 b1 24 bd 1d 94 94 bc a6 23 68 3d 8d 3e 45 bd
       -0.040208012 -0.018137032 0.056674622 -0.048155356
0001c0 41 ed 83 3c f1 a0 42 bc e9 78 4f bd 04 4a 9d bb
       0.016104342 -0.011879192 -0.05065242 -0.004800083
0001d0 7c b6 1e 3c 42 71 90 ba 96 0e 43 bb 8e 1d 6d 3c
       0.009687062 -0.0011020082 -0.0029763333 0.014472378
0001e0 f3 cf ce 3d be a1 54 bd c5 dd be bd 31 1f c9 bb
       0.10098257 -0.051912062 -0.09319643 -0.0061377515
0001f0 bc d6 b2 bc 9a cf 2c bb ce ac 1c 3c 64 59 4b 3c
       -0.021830909 -0.0026368857 0.009562684 0.012411449
000200 f6 7b 8b 3d a8 70 1f 3e 28 80 85 3c c6 a6 3f bc
       0.06810753 0.15570319 0.016296461 -0.011697477
000210 32 b7 06 be f1 c6 68 3c f7 b7 8c 3c cc 2d 91 3c
       -0.13155821 0.014207588 0.017177565 0.017722033
000220 46 74 13 3d 22 42 f3 bb aa ff 23 3d 69 1f b2 3d
       0.03599956 -0.007423655 0.040038742 0.08697397
000230 db b8 b7 3c 8f 89 04 3d e8 eb d4 bc 1a eb db bc
       0.022427013 0.03235775 -0.025991395 -0.026845504
000240 d5 9f fb 3c 93 37 d7 3c 24 44 91 3d 2f ef 99 bd
       0.030715862 0.026271617 0.07093075 -0.07516324
000250 15 62 61 bd 49 e2 e4 3d 5e 9f 3e bd 36 8a 7e 3d
       -0.05502518 0.11175973 -0.046538703 0.062143527
000260 4d 8e 9a bc ad 07 c5 3b 54 35 a6 3d f0 73 3c bd
       -0.018866682 0.006012878 0.0811564 -0.046009004
000270 3a 48 b9 bc 67 0c 23 bd 70 55 16 bd fd 60 3d 3e
       -0.022617448 -0.03980675 -0.036702573 0.1849403
000280 36 ad 52 3a 63 c5 30 bd b8 cb 18 bc 0b 59 68 bd
       0.00080366747 -0.043156993 -0.009325914 -0.056725543
000290 3c be 36 3d f4 52 a2 bd 08 bd 46 3d f3 a3 43 3d
       0.044615015 -0.07925978 0.048520118 0.047763776
0002a0 90 66 ae 3d f0 df 00 3e f6 5a a9 bd 9f ab bb 3c
       0.08515656 0.12585425 -0.082693025 0.022908984
0002b0 79 f1 ac 3d 4a 4d 9c 3b f3 67 47 3c 2d cf d7 bc
       0.08444495 0.0047699558 0.0121707795 -0.026343906
0002c0 5b 20 e3 bc cb 6d a6 bd a2 33 40 bd 6f 47 e9 bd
       -0.02772539 -0.0812641 -0.04692424 -0.11390578
0002d0 c4 a0 4f 3d c7 49 80 3d 98 ae 3f 3c 7f 70 d3 bc
       0.050690427 0.06264072 0.011699341 -0.025810478
0002e0 a7 d6 62 3c 34 7d 78 bd ed 46 b0 3d 95 ce ff bd
       0.013845122 -0.060666278 0.08607278 -0.12490574
0002f0 cb 6a 60 3b 7c be 51 3d 85 bb 3b be ad 4b 9d 3c
       0.003424334 0.05120705 -0.18333252 0.019201124
000300 62 78 0a bd 07 9e 88 3d a9 ca 16 bc 85 b3 59 3d
       -0.033806212 0.06670766 -0.009203591 0.05314972
000310 6c f3 0b 3d 21 b8 05 bd 75 ce 1c be 20 3f 10 be
       0.034167692 -0.032646302 -0.15313132 -0.1408658
000320 4a 85 89 3d 68 cc 2c bc 43 88 d3 3d ea a5 02 be
       0.06714876 -0.010546781 0.10328724 -0.12758604
000330 70 b4 7b bd f7 dc 9c 3c 1c d2 aa 3d ec bf a3 3d
       -0.061451375 0.019148333 0.083408564 0.079955906
000340 57 a5 88 3d d3 59 d9 bc 79 62 40 bd e3 88 13 3e
       0.06672161 -0.02653209 -0.04696891 0.14407687
000350 4f f7 51 ba 52 9c 85 3d 37 09 ef 3c 06 62 68 bd
       -0.0008009569 0.06523956 0.029179199 -0.056734107
000360 7f b1 e2 3c 6b 81 f4 3d a4 27 b1 bd ac 4d c4 bc
       0.027672527 0.11938747 -0.08650139 -0.023962818
000370 11 6b eb b9 19 6b e7 bd 3d 8b 16 3d 64 fb fb 3b
       -0.00044902464 -0.11299724 0.03675388 0.00768988
000380 75 fa 1a 3e 40 56 13 3e 6e ed 33 bc d7 68 f3 bb
       0.15134604 0.1438837 -0.010981901 -0.0074282694
000390 9d 6b 0b bc c1 39 27 3d bb 7b 96 bd eb 7e 12 bd
       -0.008509544 0.040826563 -0.073478185 -0.03576557
0003a0 c6 3b 2c 3c dd 0b 4f 3d 72 d3 9b 3d 86 01 b0 3d
       0.010512298 0.050548423 0.07608689 0.085940406
0003b0 83 84 3b bd 77 13 17 bd a3 16 a9 bd 34 43 6d bd
       -0.04578067 -0.036883797 -0.08256271 -0.057925418
0003c0 c5 f4 86 3d 57 4e 8c bc 5a ee 19 3d b6 5d d5 bd
       0.06589655 -0.0171272 0.037580825 -0.104182646
0003d0 46 6e 5d 3d fe e6 33 3d b6 40 11 bd 80 5b 9a bd
       0.054060243 0.043921463 -0.035462104 -0.075369835
0003e0 bb 0b 18 3c 6c 04 a9 bb 49 da fc bb c8 91 51 bc
       0.0092801405 -0.005157998 -0.0077164513 -0.012791105
0003f0 92 d0 ad 3d 1f 9a a8 bd 2e 26 3c bd 66 1d 2f bd
       0.08487047 -0.08232521 -0.04593485 -0.042752646

arith.constant6 f4 [256]
000000 ec 28 04 3d b1 b3 66 3d 6c 08 f9 3c 77 ce 65 3c
       0.03226559 0.05632371 0.030399524 0.014026276
000010 c9 5c 46 3d a6 84 4d bc 24 4e b8 3c 93 c9 7d 3d
       0.04842833 -0.012543833 0.022498198 0.061959814
000020 07 7d 59 3d 8b 4e 49 3d 36 06 9a 3c 51 ea a7 3c
       0.05309775 0.04914717 0.01880179 0.020497473
000030 6a 5f 14 3d 5f 3e 1e 3d 9e 80 8d 3c 78 69 6a 3c
       0.036223806 0.0386337 0.017273244 0.014307372
000040 fa 99 c5 3c 49 5c 54 3d f8 d9 62 3b 46 0c ac 3b
       0.024121273 0.051845822 0.0034614783 0.0052504865
000050 6f 73 04 3d fc ff cd 3b 1b 67 a8 3c cc a1 29 3d
       0.03233665 0.006286619 0.020556977 0.041414067
000060 07 33 07 3c 16 d5 d6 3c f3 98 83 3c fc d5 95 3c
       0.008251912 0.026224654 0.016064143 0.018290512
000070 50 1a cc 3c 57 4a 38 3d 17 d7 5c 3c bb 16 58 3d
       0.02491489 0.04499277 0.013479016 0.052756052
000080 11 ef a9 3c e0 c7 0f 3d 2d 4a 87 3c fb 42 28 3c
       0.020743879 0.035102725 0.016514862 0.010269876
000090 2d 31 3e 3d b4 23 0e 3d 1f 50 bd 3c 89 68 ae 3c
       0.046433616 0.034702018 0.023109494 0.02129008
0000a0 b2 c8 02 b9 21 93 f0 3c 41 72 ab 3c 3a 9e 09 3d
       -0.00012472531 0.029367032 0.020928504 0.033598162
0000b0 26 ee bb 3c a7 3b 9d 3c 61 52 c2 bb 7d 66 4c 3c
       0.022940706 0.019193484 -0.0059302305 0.012475607
0000c0 af 34 32 3d 9e 4a 4b 3d 24 aa 0a 3d 53 6f f6 3c
       0.043507274 0.049631707 0.033853665 0.03008238
0000d0 df 29 0c 3d 8d 1c 38 3b 04 1a a8 3c b2 c0 1d 3c
       0.03421962 0.002809319 0.020520218 0.009628462
0000e0 3c 4a 51 3c 14 0b 1b 3d 34 42 77 3c 9d fb c6 3c
       0.0127740465 0.03785236 0.015091468 0.0242899
0000f0 ee bd 1d 3d 96 dc 42 3d 22 5b db 3c dc 9c 8b 3b
       0.03851121 0.04757365 0.026776854 0.0042606425
000100 d8 8a 83 3f e5 e7 85 3f 38 0b 86 3f 0f f3 83 3f
       1.0276747 1.0461394 1.0472174 1.0308551
000110 de d5 7c 3f b7 26 7d 3f 0c 77 81 3f 34 59 85 3f
       0.98763835 0.988872 1.0114455 1.0417848
000120 a4 2b 83 3f 75 e3 81 3f 93 9b 84 3f c0 44 83 3f
       1.0247693 1.0147539 1.0359977 1.0255356
000130 0f 39 86 3f be 3b 86 3f 62 98 81 3f 3b 18 84 3f
       1.0486163 1.0486982 1.0124629 1.0319895
000140 e3 d4 81 3f a7 9c 87 3f cc 5d 7c 3f 81 d5 7f 3f
       1.0143093 1.0594682 0.9858062 0.99935156
000150 d0 62 86 3f a3 3d 83 3f a7 8f 83 3f c1 68 83 3f
       1.0498905 1.0253185 1.0278214 1.0266343
000160 73 1e 80 3f 9c a9 84 3f b9 6f 7f 3f 1b 26 86 3f
       1.0009292 1.0364261 0.9977985 1.0480379
000170 47 2f 84 3f 1f 76 83 3f e0 73 80 3f 9d 5c 89 3f
       1.0326928 1.0270423 1.0035362 1.0731388
000180 a8 d6 80 3f 35 e0 80 3f fc bb 83 3f d4 c8 82 3f
       1.0065508 1.0068423 1.0291743 1.0217538
000190 4b 3b 85 3f 55 5a 83 3f 9d da 83 3f 02 7f 83 3f
       1.040872 1.0261942 1.030109 1.0273135
0001a0 4f dd 7f 3f b8 46 84 3f de 15 82 3f 44 90 82 3f
       0.99947065 1.0334082 1.0162923 1.0200276
0001b0 0a 0f 82 3f 03 d5 82 3f 15 d8 7d 3f 97 fb 84 3f
       1.016084 1.0221256 0.9915784 1.0389279
0001c0 a1 59 83 3f 69 f7 83 3f 4a 77 84 3f 7d c9 81 3f
       1.0261728 1.0309879 1.0348904 1.0139614
0001d0 63 e6 83 3f e4 4a 80 3f 99 77 85 3f e7 6d 82 3f
       1.0304683 1.0022855 1.0427123 1.018979
0001e0 3f 88 81 3f 2c 73 83 3f 4b 28 80 3f eb ee 81 3f
       1.0119704 1.0269523 1.0012296 1.0151037
0001f0 8e 8c 82 3f 14 92 81 3f a5 6c 81 3f 0a c4 80 3f
       1.0199144 1.0122705 1.0111281 1.0059826
000200 00 0b 9d 3c 43 18 34 3d 5e 50 50 3c 16 72 ec bb
       0.019170284 0.04396845 0.0127144735 -0.0072157485
000210 da 36 0a 3b db 76 5b 3c 1a 44 2e 3a 54 0a 13 bd
       0.0021089823 0.013395037 0.0006647721 -0.03589852
000220 7c 14 96 ba 4d 45 bf 3c 52 78 af bc 70 c5 70 bc
       -0.0011450197 0.023348475 -0.021419678 -0.01469551
000230 d7 c7 35 bc aa 99 91 bc 65 77 40 3c 0b a1 17 bd
       -0.011095009 -0.017773468 0.011747216 -0.037018817
000240 42 48 5d bc 7a 46 a5 ba 77 65 87 bc f9 f7 5c 3c
       -0.013505997 -0.0012609505 -0.016527874 0.013486856
000250 67 dd 8b bc f5 2e fc 3b 9d 88 77 3b b6 b1 b5 bb
       -0.017073346 0.0076960274 0.0037770637 -0.0055448664
000260 36 9c f1 bc fc a2 e7 bc b0 70 9d bc 7b f3 0a bb
       -0.029493432 -0.02827596 -0.019218773 -0.0021202255
000270 00 ec 9c 3a e8 72 44 3a 9b a5 3f 3b ba 9a 2c bb
       0.0011972189 0.0007493929 0.0029242996 -0.0026337341
000280 4c fd 2f bc a4 5d 9f 3c 3e 9b 45 bd 3f 74 ef 3b
       -0.010741543 0.019453831 -0.048243754 0.007307559
000290 3a d0 12 3c 30 35 9b 3a 37 df 11 bc cd 7e 5b 3c
       0.008960778 0.0011841413 -0.008903316 0.013396931
0002a0 55 33 10 3a e6 8d ec 3c d7 34 2c bb ca ca b7 3c
       0.0005500813 0.028876256 -0.0026276612 0.022435565
0002b0 63 44 42 bc c0 78 9d 3b 6a 91 3f 3c 4e a1 c4 3b
       -0.011857125 0.0048056543 0.011692384 0.0060006743
0002c0 68 a5 2f 3c 54 b7 34 3a 97 4e ca 3c 1b c0 7a 3c
       0.010720588 0.0006893773 0.024695678 0.015304591
0002d0 1b cb 1a 3b 95 07 a8 bc 3f 1f db bb ed 20 1e 3c
       0.0023619595 -0.020511428 -0.0066870744 0.009651405
0002e0 6f e2 d1 3b f4 74 b5 3c db 16 4c 3c d3 83 e5 3a
       0.006405167 0.022150494 0.012456621 0.00175106
0002f0 da 5e d0 3a 63 7c bb bc d9 a8 b7 bc 17 2e fa 3b
       0.0015897409 -0.02288646 -0.02241938 0.007634889
000300 9d 53 f4 3c a9 5f 52 3d 97 c8 2b 3d f9 87 52 3c
       0.029825026 0.05136076 0.041939344 0.012849801
000310 93 0a 7b 3d cb 70 b3 3b a6 08 01 3d c9 76 6b 3d
       0.06128938 0.0054760925 0.03150239 0.05748633
000320 69 de 85 3d 3c f3 8c 3d fb 40 02 3d b4 e0 de 3c
       0.06536562 0.06882331 0.03180025 0.027206756
000330 cf 54 e1 3c 92 08 1c 3d 9c 9b a1 3c 59 90 b4 3c
       0.02750626 0.03809411 0.01972752 0.022041487
000340 ad f1 3a 3d d0 b3 43 3d 1f 53 57 3c 6e 21 10 3c
       0.045640636 0.047778904 0.013142376 0.008797033
000350 3f a3 11 3d 4d 4f 26 3c 4c c6 0f 3d bd 1c 5b 3d
       0.035556074 0.010150743 0.03510122 0.053494204
000360 12 dc d0 3c f8 98 43 3d 20 7b 0d 3d 3a e4 ab 3c
       0.025495563 0.047753304 0.03454125 0.02098285
000370 a9 c0 22 3d 80 b9 5b 3d 07 77 87 3c d8 3e 49 3d
       0.039734516 0.053643703 0.016536249 0.049132198
000380 83 50 1a 3d d9 f2 52 3d 9c f3 92 3c a4 43 93 3c
       0.03767444 0.05150113 0.017938428 0.01797659
000390 7a da 58 3d 9f 25 27 3d 15 3e ea 3c 25 0f 27 3d
       0.05294273 0.040807363 0.028594056 0.040785927
0003a0 66 7d 14 3c 63 c3 27 3d a4 50 2c 3d bc 13 56 3d
       0.0090631 0.04095782 0.042069092 0.052264914
0003b0 5e dd 2c 3d b6 c6 fa 3c ac bb 41 3a d3 61 07 3d
       0.0422033 0.03061233 0.0007390331 0.033052277
0003c0 62 06 47 3d 0c 65 61 3d 4e 68 49 3d f9 f5 45 3d
       0.04859007 0.055028006 0.04917174 0.04833028
0003d0 cd 21 1b 3d 01 74 28 3b 1c 0d 21 3d a7 91 82 3c
       0.03787403 0.002570391 0.039319143 0.015938593
0003e0 76 08 95 3c 93 e8 31 3d 11 99 9e 3c 2e e2 fb 3c
       0.018192511 0.04343469 0.019360097 0.0307475
0003f0 dd 46 56 3d 9b 4d 65 3d 05 6d 4d 3d 46 62 2c 3c
       0.052313674 0.055982213 0.050152797 0.010521477
